…
summary import summary\n","use_cuda = torch.cuda.is_available()\n","device = torch.device(\"cuda\" if use_cuda else \"cpu\")\n","model = Model().to(device)\n","summary(model, input_size=(1, 28, 28))"],"execution_count":3,"outputs":[{"output_type":"stream","text":["Requirement already satisfied: torchsummary in /usr/local/lib/python3.6/dist-packages (1.5.1)\n","----------------------------------------------------------------\n","        Layer (type)               Output Shape         Param #\n","================================================================\n","            Conv2d-1           [-1, 16, 28, 28]             160\n","              ReLU-2           [-1, 16, 28, 28]               0\n","            Conv2d-3           [-1, 16, 28, 28]           2,320\n","              ReLU-4           [-1, 16, 28, 28]               0\n","            Conv2d-5           [-1, 16, 14, 14]           2,320\n","              ReLU-6           [-1, 16, 14, 14]               0\n","       BatchNorm2d-7           [-1, 16, 14, 14]              32\n","         MaxPool2d-8             [-1, 16, 7, 7]               0\n","            Conv2d-9             [-1, 32, 7, 7]           4,640\n","             ReLU-10             [-1, 32, 7, 7]               0\n","           Conv2d-11             [-1, 32, 7, 7]           9,248\n","             ReLU-12             [-1, 32, 7, 7]               0\n","           Conv2d-13             [-1, 32, 4, 4]           9,248\n","             ReLU-14             [-1, 32, 4, 4]               0\n","      BatchNorm2d-15             [-1, 32, 4, 4]              64\n","        MaxPool2d-16             [-1, 32, 2, 2]               0\n","           Conv2d-17             [-1, 64, 2, 2]          18,496\n","             ReLU-18             [-1, 64, 2, 2]               0\n","        MaxPool2d-19             [-1, 64, 1, 1]               0\n","           Linear-20                   [-1, 10]             650\n","================================================================\n","Total params: 47,178\n","Trainable params: 47,178\n","Non-trainable params: 0\n","----------------------------------------------------------------\n","Input size (MB): 0.00\n","Forward/backward pass size (MB): 0.53\n","Params size (MB): 0.18\n","Estimated Total Size (MB): 0.71\n","--------------------------------------------
…
